…
INFO - 03/23/22 05:41:56 - 0:00:00 - Para Data          -        380
INFO - 03/23/22 05:41:56 - 0:00:00 - Loading dataOld from /content/drive/My Drive/Transformer_timeseries/Transformer_timeseries/data_new/valid/validData_1.txt.pth ...
INFO - 03/23/22 05:41:56 - 0:00:00 - Loading dataOld from /content/drive/My Drive/Transformer_timeseries/Transformer_timeseries/data_new/valid/validSummary_1.txt.pth ...
INFO - 03/23/22 05:41:56 - 0:00:00 - Removed 0 empty sentences.
INFO - 03/23/22 05:41:56 - 0:00:00 - Removed 0 empty sentences.

DEBUG - 03/23/22 05:41:57 - 0:00:02 - Encoder: TransformerEncoder(
                                        (position_embeddings): Embedding(800, 512)
                                        (embeddings): Embedding(1550, 128, padding_idx=2)
                                        (layer_norm_emb): LayerNorm((512,), eps=1e-12, elementwise_affine=True)
                                        (attentions): ModuleList(
                                          (0): MultiHeadAttention(
                                            (q_lin): Linear(in_features=512, out_features=512, bias=True)
                                            (k_lin): Linear(in_features=512, out_features=512, bias=True)
                                            (v_lin): Linear(in_features=512, out_features=512, bias=True)
                                            (out_lin): Linear(in_features=512, out_features=512, bias=True)
                                          )
                                        )
                                        (layer_norm1): ModuleList(
                                          (0): LayerNorm((512,), eps=1e-12, elementwise_affine=True)
                                        )
                                        (ffns): ModuleList(
                                          (0): TransformerFFN(
                                            (lin1): Linear(in_features=512, out_features=2048, bias=True)
                                            (lin2): Linear(in_features=2048, out_features=512, bias=True)
                                          )
                                        )
                                        (layer_norm2): ModuleList(
                                          (0): LayerNorm((512,), eps=1e-12, elementwise_affine=True)
                                        )
                                        (pred_layer): BinaryOutputLayer(
                                          (proj): Linear(in_features=512, out_features=1, bias=True)
                                          (proj_act): Sigmoid()
                                          (criterion): BCELoss()
                                        )
                                      )
DEBUG - 03/23/22 05:41:57 - 0:00:02 - Decoder: TransformerDecoder(
                                        (position_embeddings): Embedding(602, 512)
                                        (embeddings): Embedding(1163, 512, padding_idx=2)
                                        (layer_norm_emb): LayerNorm((512,), eps=1e-12, elementwise_affine=True)
                                        (attentions): ModuleList(
                                          (0): MultiHeadAttention(
                                            (q_lin): Linear(in_features=512, out_features=512, bias=True)
                                            (k_lin): Linear(in_features=512, out_features=512, bias=True)
                                            (v_lin): Linear(in_features=512, out_features=512, bias=True)
                                            (out_lin): Linear(in_features=512, out_features=512, bias=True)
                                          )
                                          (1): MultiHeadAttention(
                                            (q_lin): Linear(in_features=512, out_features=512, bias=True)
                                            (k_lin): Linear(in_features=512, out_features=512, bias=True)
                                            (v_lin): Linear(in_features=512, out_features=512, bias=True)
                                            (out_lin): Linear(in_features=512, out_features=512, bias=True)
                                          )
                                          (2): MultiHeadAttention(
                                            (q_lin): Linear(in_features=512, out_features=512, bias=True)
                                            (k_lin): Linear(in_features=512, out_features=512, bias=True)
                                            (v_lin): Linear(in_features=512, out_features=512, bias=True)
                                            (out_lin): Linear(in_features=512, out_features=512, bias=True)
                                          )
                                          (3): MultiHeadAttention(
                                            (q_lin): Linear(in_features=512, out_features=512, bias=True)
                                            (k_lin): Linear(in_features=512, out_features=512, bias=True)
                                            (v_lin): Linear(in_features=512, out_features=512, bias=True)
                                            (out_lin): Linear(in_features=512, out_features=512, bias=True)
                                          )
                                          (4): MultiHeadAttention(
                                            (q_lin): Linear(in_features=512, out_features=512, bias=True)
                                            (k_lin): Linear(in_features=512, out_features=512, bias=True)
                                            (v_lin): Linear(in_features=512, out_features=512, bias=True)
                                            (out_lin): Linear(in_features=512, out_features=512, bias=True)
                                          )
                                          (5): MultiHeadAttention(
                                            (q_lin): Linear(in_features=512, out_features=512, bias=True)
                                            (k_lin): Linear(in_features=512, out_features=512, bias=True)
                                            (v_lin): Linear(in_features=512, out_features=512, bias=True)
                                            (out_lin): Linear(in_features=512, out_features=512, bias=True)
                                          )
                                        )
                                        (layer_norm1): ModuleList(
                                          (0): LayerNorm((512,), eps=1e-12, elementwise_affine=True)
                                          (1): LayerNorm((512,), eps=1e-12, elementwise_affine=True)
                                          (2): LayerNorm((512,), eps=1e-12, elementwise_affine=True)
                                          (3): LayerNorm((512,), eps=1e-12, elementwise_affine=True)
                                          (4): LayerNorm((512,), eps=1e-12, elementwise_affine=True)
                                          (5): LayerNorm((512,), eps=1e-12, elementwise_affine=True)
                                        )
                                        (ffns): ModuleList(
                                          (0): TransformerFFN(
                                            (lin1): Linear(in_features=512, out_features=2048, bias=True)
                                            (lin2): Linear(in_features=2048, out_features=512, bias=True)
                                          )
                                          (1): TransformerFFN(
                                            (lin1): Linear(in_features=512, out_features=2048, bias=True)
                                            (lin2): Linear(in_features=2048, out_features=512, bias=True)
                                          )
                                          (2): TransformerFFN(
                                            (lin1): Linear(in_features=512, out_features=2048, bias=True)
                                            (lin2): Linear(in_features=2048, out_features=512, bias=True)
                                          )
                                          (3): TransformerFFN(
                                            (lin1): Linear(in_features=512, out_features=2048, bias=True)
                                            (lin2): Linear(in_features=2048, out_features=512, bias=True)
                                          )
                                          (4): TransformerFFN(
                                            (lin1): Linear(in_features=512, out_features=2048, bias=True)
                                            (lin2): Linear(in_features=2048, out_features=512, bias=True)
                                          )
                                          (5): TransformerFFN(
                                            (lin1): Linear(in_features=512, out_features=2048, bias=True)
                                            (lin2): Linear(in_features=2048, out_features=512, bias=True)
                                          )
                                        )
                                        (layer_norm2): ModuleList(
                                          (0): LayerNorm((512,), eps=1e-12, elementwise_affine=True)
                                          (1): LayerNorm((512,), eps=1e-12, elementwise_affine=True)
                                          (2): LayerNorm((512,), eps=1e-12, elementwise_affine=True)
                                          (3): LayerNorm((512,), eps=1e-12, elementwise_affine=True)
                                          (4): LayerNorm((512,), eps=1e-12, elementwise_affine=True)
                                          (5): LayerNorm((512,), eps=1e-12, elementwise_affine=True)
                                        )
                                        (layer_norm15): ModuleList(
                                          (0): LayerNorm((512,), eps=1e-12, elementwise_affine=True)
                                          (1): LayerNorm((512,), eps=1e-12, elementwise_affine=True)
                                          (2): LayerNorm((512,), eps=1e-12, elementwise_affine=True)
                                          (3): LayerNorm((512,), eps=1e-12, elementwise_affine=True)
                                          (4): LayerNorm((512,), eps=1e-12, elementwise_affine=True)
                                          (5): LayerNorm((512,), eps=1e-12, elementwise_affine=True)
                                        )
                                        (encoder_attn): ModuleList(
                                          (0): MultiHeadAttention(
                                            (q_lin): Linear(in_features=512, out_features=512, bias=True)
                                            (k_lin): Linear(in_features=512, out_features=512, bias=True)
                                            (v_lin): Linear(in_features=512, out_features=512, bias=True)
                                            (out_lin): Linear(in_features=512, out_features=512, bias=True)
                                          )
                                          (1): MultiHeadAttention(
                                            (q_lin): Linear(in_features=512, out_features=512, bias=True)
                                            (k_lin): Linear(in_features=512, out_features=512, bias=True)
                                            (v_lin): Linear(in_features=512, out_features=512, bias=True)
                                            (out_lin): Linear(in_features=512, out_features=512, bias=True)
                                          )
                                          (2): MultiHeadAttention(
                                            (q_lin): Linear(in_features=512, out_features=512, bias=True)
                                            (k_lin): Linear(in_features=512, out_features=512, bias=True)
                                            (v_lin): Linear(in_features=512, out_features=512, bias=True)
                                            (out_lin): Linear(in_features=512, out_features=512, bias=True)
                                          )
                                          (3): MultiHeadAttention(
                                            (q_lin): Linear(in_features=512, out_features=512, bias=True)
                                            (k_lin): Linear(in_features=512, out_features=512, bias=True)
                                            (v_lin): Linear(in_features=512, out_features=512, bias=True)
                                            (out_lin): Linear(in_features=512, out_features=512, bias=True)
                                          )
                                          (4): MultiHeadAttention(
                                            (q_lin): Linear(in_features=512, out_features=512, bias=True)
                                            (k_lin): Linear(in_features=512, out_features=512, bias=True)
                                            (v_lin): Linear(in_features=512, out_features=512, bias=True)
                                            (out_lin): Linear(in_features=512, out_features=512, bias=True)
                                          )
                                          (5): MultiHeadAttention(
                                            (q_lin): Linear(in_features=512, out_features=512, bias=True)
                                            (k_lin): Linear(in_features=512, out_features=512, bias=True)
                                            (v_lin): Linear(in_features=512, out_features=512, bias=True)
                                            (out_lin): Linear(in_features=512, out_features=512, bias=True)
                                          )
                                        )
                                        (pred_layer): PredLayer(
                                          (proj): Linear(in_features=512, out_features=1163, bias=True)
                                        )
                                      )
INFO - 03/23/22 05:41:57 - 0:00:02 - Number of parameters (encoder): 3352321
INFO - 03/23/22 05:41:57 - 0:00:02 - Number of parameters (decoder): 25821835
INFO - 03/23/22 05:42:00 - 0:00:05 - ============ Starting epoch 0 ... ============
INFO - 03/23/22 05:42:00 - 0:00:05 - Creating new training dataOld iterator (cs) ...
…
