…
INFO - 02/07/22 00:20:45 - 0:00:00 - Removed 0 empty sentences.
INFO - 02/07/22 00:20:45 - 0:00:00 - Para Data          -       5703
INFO - 02/07/22 00:20:45 - 0:00:00 - Loading dataOld from D:/study/CPSC449/Chart2Text/data/valid/validData.txt.pth ...
INFO - 02/07/22 00:20:45 - 0:00:00 - Loading dataOld from D:/study/CPSC449/Chart2Text/data/valid/validSummary.txt.pth ...
INFO - 02/07/22 00:20:45 - 0:00:00 - Removed 0 empty sentences.
INFO - 02/07/22 00:20:45 - 0:00:00 - Removed 0 empty sentences.

DEBUG - 02/07/22 00:20:57 - 0:00:13 - Encoder: TransformerEncoder(
                                        (position_embeddings): Embedding(800, 512)
                                        (embeddings): Embedding(57885, 128, padding_idx=2)
                                        (layer_norm_emb): LayerNorm((512,), eps=1e-12, elementwise_affine=True)
                                        (attentions): ModuleList(
                                          (0): MultiHeadAttention(
                                            (q_lin): Linear(in_features=512, out_features=512, bias=True)
                                            (k_lin): Linear(in_features=512, out_features=512, bias=True)
                                            (v_lin): Linear(in_features=512, out_features=512, bias=True)
                                            (out_lin): Linear(in_features=512, out_features=512, bias=True)
                                          )
                                        )
                                        (layer_norm1): ModuleList(
                                          (0): LayerNorm((512,), eps=1e-12, elementwise_affine=True)
                                        )
                                        (ffns): ModuleList(
                                          (0): TransformerFFN(
                                            (lin1): Linear(in_features=512, out_features=2048, bias=True)
                                            (lin2): Linear(in_features=2048, out_features=512, bias=True)
                                          )
                                        )
                                        (layer_norm2): ModuleList(
                                          (0): LayerNorm((512,), eps=1e-12, elementwise_affine=True)
                                        )
                                        (pred_layer): BinaryOutputLayer(
                                          (proj): Linear(in_features=512, out_features=1, bias=True)
                                          (proj_act): Sigmoid()
                                          (criterion): BCELoss()
                                        )
                                      )
DEBUG - 02/07/22 00:20:57 - 0:00:13 - Decoder: TransformerDecoder(
                                        (position_embeddings): Embedding(602, 512)
                                        (embeddings): Embedding(11198, 512, padding_idx=2)
                                        (layer_norm_emb): LayerNorm((512,), eps=1e-12, elementwise_affine=True)
                                        (attentions): ModuleList(
                                          (0): MultiHeadAttention(
                                            (q_lin): Linear(in_features=512, out_features=512, bias=True)
                                            (k_lin): Linear(in_features=512, out_features=512, bias=True)
                                            (v_lin): Linear(in_features=512, out_features=512, bias=True)
                                            (out_lin): Linear(in_features=512, out_features=512, bias=True)
                                          )
                                          (1): MultiHeadAttention(
                                            (q_lin): Linear(in_features=512, out_features=512, bias=True)
                                            (k_lin): Linear(in_features=512, out_features=512, bias=True)
                                            (v_lin): Linear(in_features=512, out_features=512, bias=True)
                                            (out_lin): Linear(in_features=512, out_features=512, bias=True)
                                          )
                                          (2): MultiHeadAttention(
                                            (q_lin): Linear(in_features=512, out_features=512, bias=True)
                                            (k_lin): Linear(in_features=512, out_features=512, bias=True)
                                            (v_lin): Linear(in_features=512, out_features=512, bias=True)
                                            (out_lin): Linear(in_features=512, out_features=512, bias=True)
                                          )
                                          (3): MultiHeadAttention(
                                            (q_lin): Linear(in_features=512, out_features=512, bias=True)
                                            (k_lin): Linear(in_features=512, out_features=512, bias=True)
                                            (v_lin): Linear(in_features=512, out_features=512, bias=True)
                                            (out_lin): Linear(in_features=512, out_features=512, bias=True)
                                          )
                                          (4): MultiHeadAttention(
                                            (q_lin): Linear(in_features=512, out_features=512, bias=True)
                                            (k_lin): Linear(in_features=512, out_features=512, bias=True)
                                            (v_lin): Linear(in_features=512, out_features=512, bias=True)
                                            (out_lin): Linear(in_features=512, out_features=512, bias=True)
                                          )
                                          (5): MultiHeadAttention(
                                            (q_lin): Linear(in_features=512, out_features=512, bias=True)
                                            (k_lin): Linear(in_features=512, out_features=512, bias=True)
                                            (v_lin): Linear(in_features=512, out_features=512, bias=True)
                                            (out_lin): Linear(in_features=512, out_features=512, bias=True)
                                          )
                                        )
                                        (layer_norm1): ModuleList(
                                          (0): LayerNorm((512,), eps=1e-12, elementwise_affine=True)
                                          (1): LayerNorm((512,), eps=1e-12, elementwise_affine=True)
                                          (2): LayerNorm((512,), eps=1e-12, elementwise_affine=True)
                                          (3): LayerNorm((512,), eps=1e-12, elementwise_affine=True)
                                          (4): LayerNorm((512,), eps=1e-12, elementwise_affine=True)
                                          (5): LayerNorm((512,), eps=1e-12, elementwise_affine=True)
                                        )
                                        (ffns): ModuleList(
                                          (0): TransformerFFN(
                                            (lin1): Linear(in_features=512, out_features=2048, bias=True)
                                            (lin2): Linear(in_features=2048, out_features=512, bias=True)
                                          )
                                          (1): TransformerFFN(
                                            (lin1): Linear(in_features=512, out_features=2048, bias=True)
                                            (lin2): Linear(in_features=2048, out_features=512, bias=True)
                                          )
                                          (2): TransformerFFN(
                                            (lin1): Linear(in_features=512, out_features=2048, bias=True)
                                            (lin2): Linear(in_features=2048, out_features=512, bias=True)
                                          )
                                          (3): TransformerFFN(
                                            (lin1): Linear(in_features=512, out_features=2048, bias=True)
                                            (lin2): Linear(in_features=2048, out_features=512, bias=True)
                                          )
                                          (4): TransformerFFN(
                                            (lin1): Linear(in_features=512, out_features=2048, bias=True)
                                            (lin2): Linear(in_features=2048, out_features=512, bias=True)
                                          )
                                          (5): TransformerFFN(
                                            (lin1): Linear(in_features=512, out_features=2048, bias=True)
                                            (lin2): Linear(in_features=2048, out_features=512, bias=True)
                                          )
                                        )
                                        (layer_norm2): ModuleList(
                                          (0): LayerNorm((512,), eps=1e-12, elementwise_affine=True)
                                          (1): LayerNorm((512,), eps=1e-12, elementwise_affine=True)
                                          (2): LayerNorm((512,), eps=1e-12, elementwise_affine=True)
                                          (3): LayerNorm((512,), eps=1e-12, elementwise_affine=True)
                                          (4): LayerNorm((512,), eps=1e-12, elementwise_affine=True)
                                          (5): LayerNorm((512,), eps=1e-12, elementwise_affine=True)
                                        )
                                        (layer_norm15): ModuleList(
                                          (0): LayerNorm((512,), eps=1e-12, elementwise_affine=True)
                                          (1): LayerNorm((512,), eps=1e-12, elementwise_affine=True)
                                          (2): LayerNorm((512,), eps=1e-12, elementwise_affine=True)
                                          (3): LayerNorm((512,), eps=1e-12, elementwise_affine=True)
                                          (4): LayerNorm((512,), eps=1e-12, elementwise_affine=True)
                                          (5): LayerNorm((512,), eps=1e-12, elementwise_affine=True)
                                        )
                                        (encoder_attn): ModuleList(
                                          (0): MultiHeadAttention(
                                            (q_lin): Linear(in_features=512, out_features=512, bias=True)
                                            (k_lin): Linear(in_features=512, out_features=512, bias=True)
                                            (v_lin): Linear(in_features=512, out_features=512, bias=True)
                                            (out_lin): Linear(in_features=512, out_features=512, bias=True)
                                          )
                                          (1): MultiHeadAttention(
                                            (q_lin): Linear(in_features=512, out_features=512, bias=True)
                                            (k_lin): Linear(in_features=512, out_features=512, bias=True)
                                            (v_lin): Linear(in_features=512, out_features=512, bias=True)
                                            (out_lin): Linear(in_features=512, out_features=512, bias=True)
                                          )
                                          (2): MultiHeadAttention(
                                            (q_lin): Linear(in_features=512, out_features=512, bias=True)
                                            (k_lin): Linear(in_features=512, out_features=512, bias=True)
                                            (v_lin): Linear(in_features=512, out_features=512, bias=True)
                                            (out_lin): Linear(in_features=512, out_features=512, bias=True)
                                          )
                                          (3): MultiHeadAttention(
                                            (q_lin): Linear(in_features=512, out_features=512, bias=True)
                                            (k_lin): Linear(in_features=512, out_features=512, bias=True)
                                            (v_lin): Linear(in_features=512, out_features=512, bias=True)
                                            (out_lin): Linear(in_features=512, out_features=512, bias=True)
                                          )
                                          (4): MultiHeadAttention(
                                            (q_lin): Linear(in_features=512, out_features=512, bias=True)
                                            (k_lin): Linear(in_features=512, out_features=512, bias=True)
                                            (v_lin): Linear(in_features=512, out_features=512, bias=True)
                                            (out_lin): Linear(in_features=512, out_features=512, bias=True)
                                          )
                                          (5): MultiHeadAttention(
                                            (q_lin): Linear(in_features=512, out_features=512, bias=True)
                                            (k_lin): Linear(in_features=512, out_features=512, bias=True)
                                            (v_lin): Linear(in_features=512, out_features=512, bias=True)
                                            (out_lin): Linear(in_features=512, out_features=512, bias=True)
                                          )
                                        )
                                        (pred_layer): PredLayer(
                                          (proj): Linear(in_features=512, out_features=11198, bias=True)
                                        )
                                      )
INFO - 02/07/22 00:20:57 - 0:00:13 - Number of parameters (encoder): 10563201
INFO - 02/07/22 00:20:57 - 0:00:13 - Number of parameters (decoder): 30969790
INFO - 02/07/22 00:21:08 - 0:00:24 - ============ Starting epoch 0 ... ============
INFO - 02/07/22 00:21:12 - 0:00:28 - Creating new training dataOld iterator (cs) ...
…
